implementations/dcgan/saved_model/discriminator.pth (torch, 403218 bytes, 21 tensors)

model.0.weight f4 [16, 1, 3, 3]
-0.01099907 0.012982825 -0.031409703 -0.13371964 -0.10749254 -0.07535206 -0.0872118 -0.024370622
-0.037492502 -0.07486799 0.0070091416 -0.010069838 -0.24655667 0.00941795 -0.027232673 -0.08659763
0.012052309 0.019068504 0.0798256 -0.033119064 -0.049061645 -0.74746126 0.19789982 -0.2186136
-0.062324088 0.11624579 -0.026142811 0.19255534 -0.18854657 0.038254008 0.5275458 -0.13820955
0.014897295 -0.1070606 0.029781196 -0.003774689 -0.05005065 0.034555174 -0.023761611 0.045358762
0.30292618 0.011896089 -0.57110375 -0.0069805216 -0.1016058 0.19644272 -0.010757845 0.2244585
-0.43555656 -0.34371102 -0.43503404 0.53415203 0.0382593 0.4836358 0.38182572 0.23200935
-0.16736929 -0.058762446 0.16502771 -0.22187333 0.03932274 0.116006896 0.055175994 0.2722084
-0.1043719 -0.5585806 -0.2558619 -0.16822305 1.3509775 0.14430922 0.104264766 -0.7049669
0.07179292 0.013595812 -0.0414457 -0.00635212 -0.15331534 0.02342301 -0.14590877 -0.11526279
-0.095162 0.27594948 0.10926092 0.20513757 -0.31114516 0.052748736 -0.93092424 0.071943864
-0.026300013 0.19209825 -0.040543802 -0.015796725 -0.1266701 -0.2397187 -0.0012464499 -0.18633287
-0.06652811 -0.049897373 0.2358902 -0.08179485 0.114719 -0.08762255 0.37777284 0.004950387
0.7184693 -0.1615737 -0.026182888 -0.14338717 -0.114682175 0.33835608 -0.3086578 -0.5539792
0.5047932 -0.2083974 0.29229224 -0.30361548 0.14783725 0.013375942 -0.22491574 0.023387287
0.38275656 -0.40132812 0.4053446 0.64500844 0.24820754 -0.02178876 0.015572253 -0.17511585
-0.19168416 -0.096009076 -0.043362945 -0.06416618 0.0754442 0.0017557461 -0.03427092 0.30520484
-0.12021673 0.30175084 0.005118979 -0.24379379 -0.05290439 -0.45590228 -0.14974461 -0.07438913
00000000: 7135 34bc eab5 543c 76a7 00bd cded 08be
00000010: 0c25 dcbd 2e52 9abd 1a9c b2bd e6a4 c7bc
00000020: bd91 19bd 6454 99bd f1ac e53b f6fb 24bc
00000030: 5a79 7cbe bf4d 1a3c 0e17 dfbc 195a b1bd
00000040: 0c77 453c 8d35 9c3c 9b7b a33d dba7 07bd
00000050: ddf4 48bd 9f59 3fbf 40a6 4a3e 3edc 5fbe
00000060: 8b47 7fbd 4612 ee3d 7329 d6bc 3a2d 453e
00000070: 5a12 41be 3cb0 1c3d 3e0d 073f ce86 0dbe
00000080: c913 743c 9642 dbbd b2f7 f33c c660 77bb
00000090: e901 4dbd ba89 0d3d b6a7 c2bc 1cca 393d
000000a0: 2419 9b3e d0e7 423c db33 12bf dcbc e4bb
000000b0: b416 d0bd 4828 493e ac41 30bc 73d8 653e
000000c0: 4501 dfbe e4fa afbe c8bc debe 30be 083f
000000d0: c9b5 1c3d 1d9f f73e a97e c33e dc93 6d3e
000000e0: db62 2bbe e4b0 70bd 06fd 283e c332 63be
000000f0: e210 213d 0695 ed3d 3900 623d e65e 8b3e
00000100: efc0 d5bd 23ff 0ebf 5500 83be aa42 2cbe
00000110: d5ec ac3f ccc5 133e c488 d53d b678 34bf
00000120: 2b08 933d f8c0 5e3c f7c2 29bd 7225 d0bb
00000130: b2fe 1cbe 9de1 bf3c 1c69 15be e60e ecbd
00000140: 4be4 c2bd 4049 8d3e 30c4 df3d 950f 523e
00000150: 6b4e 9fbe 0f0f 583d 0d51 6ebf 4e57 933d
00000160: 2073 d7bc 67b5 443e 4211 26bd 2268 81bc
00000170: cfb5 01be d278 75be eb5f a3ba 0bce 3ebe
00000180: e43f 88bd 3061 4cbd 338d 713e 0f84 a7bd
00000190: ccf1 ea3d 7473 b3bd 716b c13e db36 a23b
000001a0: 9bed 373f 9373 25be 7f7d d6bc 16d4 12be
000001b0: 7dde eabd 023d ad3e 6508 9ebe 95d1 0dbf
000001c0: 213a 013f 2166 55be 54a7 953e 7d73 9bbe
000001d0: a662 173e c426 5b3c 5050 66be b296 bf3c
000001e0: abf8 c33e e17a cdbe 5489 cf3e 461f 253f
000001f0: 1e2a 7e3e 577e b2bc c322 7f3c 9251 33be
00000200: da48 44be 68a0 c4bd 589d 31bd 8f69 83bd
00000210: 7d82 9a3d 1021 e63a aa5f 0cbd cf43 9c3e
00000220: 3034 f6bd 167f 9a3e 1cbd a73b 14a5 79be
00000230: 46b2 58bd 066c e9be a756 19be 5459 98bd

model.0.bias f4 [16]
-0.43472746 -0.31884786 -0.26224634 0.37519243 -0.30949453 0.19188505 0.23339881 0.271451
-0.36691815 -0.3874253 -0.26971385 -0.11694103 -0.018883329 -0.26065952 -0.42220885 0.0984459
00000000: 9994 debe 0740 a3be 2745 86be 3919 c03e
00000010: 1176 9ebe 847d 443e 1900 6f3e a0fb 8a3e
00000020: b2dc bbbe 9c5c c6be ef17 8abe c77e efbd
00000030: 36b1 9abc 2a75 85be c22b d8be 019e c93d

model.3.weight f4 [32, 16, 3, 3]
-0.112207904 0.11997233 0.15046722 -0.15071979 -0.06687882 -0.216369 -0.097005405 -0.13826965
-0.32191998 -0.20110308 0.05719159 0.20939928 -0.2286129 -0.14264034 -0.18447974 -0.10940454
-0.19846502 -0.28480572 0.0003700235 0.110409625 0.06667159 -0.17218344 -0.01854459 -0.03834451
-0.041209634 -0.044927225 0.05662679 0.07542799 -0.03531249 -0.024450988 0.04232294 -0.0400373
-0.18071109 0.022284498 0.054456163 -0.06664215 -0.011808969 0.019442534 0.043372434 -0.03586078
-0.26602444 -0.3715261 0.20797841 0.07424903 0.22020748 0.034070153 0.04747057 0.034115724
-0.07391097 -0.025755616 0.009302372 0.007477845 0.0756532 0.0020922516 0.01861983 -0.07987129
-0.00259281 0.029042797 -0.04068212 -0.074516565 0.029371535 0.014255009 -0.09387669 -0.14359534
-0.0752817 0.006636596 -0.14228854 -0.2757048 -0.10421212 0.07229536 0.33749172 -0.11460648
-0.13956289 0.056908768 0.12334713 -0.068760134 -0.14864187 -0.099683136 -0.09271792 -0.18526465
-0.20044805 -0.03249474 0.065650314 0.0946057 -0.17284524 -0.14121345 -0.07477283 -0.22983935
-0.05026768 0.043619752 -0.04830287 0.25995243 0.09120957 -0.22691071 -0.048557162 -0.04193899
-0.1472819 -0.15430355 0.039653167 -0.0146930395 -0.09082758 0.067003824 -0.049774896 -0.1711868
-0.009502113 0.08746372 -0.051439885 0.015057493 0.013334465 0.16315612 0.046050977 -0.027840232
0.09290444 0.11670911 0.05609131 0.06669122 -0.018655324 0.04984747 -0.11775247 0.02463161
-0.022668218 -0.10286044 -0.014605204 0.05046896 -0.028132996 -0.039377972 -0.03410813 0.25721985
0.24335547 -0.22868997 -0.09678671 -0.13770713 -0.096312396 -0.2132684 -0.10844009 -0.06381439
0.008067387 0.11448751 -0.024089845 -0.106720075 0.020950211 0.020284342 -0.10103757 0.023673674
-0.20034263 -0.21737848 -0.15958643 -0.20891792 -0.34168103 -0.11346446 -0.24598612 -0.13614325
-0.12241969 -0.013580686 -0.053080354 -0.15849052 -0.021667747 -0.5511997 -0.22934943 -0.023006635
-0.103237115 -0.1361132 0.06630033 0.040581774 -0.047815263 0.007817661 -0.024293886 -0.050174855
-0.028044365 0.05153836 -0.035563357 0.12075475 -0.058469117 0.044397358 -0.023754805 -0.14715786
-0.07965566 0.03279962 -0.0267238 -0.024425501 -0.01131089 -0.58201605 -0.28231025 -0.040559024
-0.3582922 -0.061707985 -0.06804222 0.18591323 0.022135213 0.17004672 0.071402766 0.012719714
0.2662735 -0.033054266 -0.010134593 0.04256339 -0.09773988 0.005827076 0.08392172 -0.0073966635
0.0684992 -0.030614989 -0.10062456 -0.13451622 -0.033749375 -0.0463342 -0.04589103 -0.18271117
0.129809 -0.078160055 -0.45098177 0.30682427 -0.22650798 -0.11551586 -0.031497456 0.10193286
-0.15272242 -0.45144984 -0.097320445 -0.1691826 -0.27267843 -0.024264704 -0.10371089 -0.057201233
0.0015715495 0.046911903 0.0810673 0.11838239 -0.065513134 0.10115852 0.12969467 0.041984223
0.07399932 0.0037455787 0.13574004 -0.14594181 -0.016147714 0.008383634 -0.0829325 -0.056232132
0.0194124 -0.074548766 -0.060147148 -0.06925203 -0.13155583 0.042548236 -0.29948527 -0.29438618
0.02496058 -0.21810381 -0.07990924 0.018740347 0.08427442 0.29305372 -0.047311325 -0.11255109
00000000: 42cd e5bd 0eb4 f53d 1414 1a3e 4a56 1abe
00000010: c3f7 88bd d68f 5dbe c5aa c6bd 8f96 0dbe
00000020: b2d2 a4be f7ed 4dbe bb41 6a3d c46c 563e
00000030: 8019 6abe 4f10 12be 42e8 3cbe 7d0f e0bd
00000040: 6a3a 4bbe 0ed2 91be b7ff c139 711e e23d
00000050: 1d8b 883d db50 30be d3ea 97bc 220f 1dbd
00000060: 6fcb 28bd 9c05 38bd 7ef1 673d fd79 9a3d
00000070: d4a3 10bd 704d c8bc d25a 2d3d 27fe 23bd
00000080: 540c 39be fb8d b63c 6d0d 5f3d ae7b 88bd
00000090: 687a 41bc f345 9f3c 4ba7 313d c1e2 12bd
000000a0: 5b34 88be ab38 bebe 4bf8 543e e00f 983d
000000b0: 127e 613e 258d 0b3d 8070 423d eebc 0b3d
000000c0: a25e 97bd 71fd d2bc fa68 183c b608 f53b
000000d0: 11f0 9a3d 281e 093b 9d88 983c 8f93 a3bd
000000e0: 22ec 29bb 29eb ed3c 4ba2 26bd 249c 98bd
000000f0: 939c f03c d78d 693c 6c42 c0bd a80a 13be
00000100: 4b2d 9abd cd77 d93b 16b4 11be 2e29 8dbe
00000110: 2a6d d5bd 970f 943d b7cb ac3e cdb6 eabd
00000120: 93e9 0ebe 2b19 693d 6c9d fc3d 1dd2 8cbd
00000130: 9335 18be ac26 ccbd e5e2 bdbd 04b6 3dbe
00000140: 4142 4dbe 3419 05bd ac73 863d a2c0 c13d
00000150: 58fe 30be 429a 10be 7f22 99bd 025b 6bbe
00000160: 7ce5 4dbd a0aa 323d 3bd9 45bd 7c18 853e
00000170: 15cc ba3d 485b 68be e0e3 46bd 38c8 2bbd
00000180: 11d1 16be c001 1ebe 5c6b 223d 13bb 70bc
00000190: cf03 babd 4d39 893d c3e0 4bbd 984b 2fbe
000001a0: c0ae 1bbc 2e20 b33d a1b2 52bd b4b3 763c
000001b0: cd78 5a3c 6612 273e f39f 3c3d 3311 e4bc
000001c0: af44 be3d 3005 ef3d 00c0 653d 6895 883d
000001d0: 0dd3 98bc dc2c 4c3d 3528 f1bd 3bc8 c93c
000001e0: b3b2 b9bc 7fa8 d2bd aa4a 6fbc 8ab8 4e3d
000001f0: 2b77 e6bc cc4a 21bd f7b4 0bbd 52b2 833e
00000200: 2d32 793e b42d 6abe 1c38 c6bd 1903 0dbe
00000210: 6f3f c5bd 0863 5abe d715 debd 1eb1 82bd
00000220: 132d 043c 6d78 ea3d 1158 c5bc 0e90 dabd
00000230: c79f ab3c 592b a63c c9ec cebd 4bef c13c
00000240: 9e26 4dbe 7798 5ebe a06a 23be 94ee 55be
00000250: d1f0 aebe 0e60 e8bd c9e3 7bbe 2369 0bbe
00000260: 2db7 fabd 8781 5ebc c96a 59bd 574b 22be
00000270: 8f80 b1bc 6c1b 0dbf 94da 6abe 6978 bcbc
00000280: fb6d d3bd 4261 0bbe 78c8 873d 1339 263d
00000290: f0d9 43bd a615 003c f903 c7bc 2684 4dbd
000002a0: 4cbd e5bc e319 533d e2aa 11bd 444e f73d
000002b0: 507d 6fbd 01da 353d 7099 c2bc 8db0 16be
000002c0: 8222 a3bd e558 063d dfeb dabc fd17 c8bc
000002d0: 5051 39bc 01ff 14bf f88a 90be 3821 26bd
000002e0: 1372 b7be 83c1 7cbd b859 8bbd 0a60 3e3e
000002f0: e854 b53c ba20 2e3e 9d3b 923d 5966 503c
00000300: 0055 883e e963 07bd 900b 26bc f356 2e3d
00000310: d92b c8bd 0ef1 be3b 27df ab3d b65f f2bb
00000320: 4f49 8c3d 49cc fabc 4014 cebd 9fbe 09be
00000330: c93c 0abd eec8 3dbd 3cf8 3bbd a318 3bbe
00000340: a7ec 043e 6112 a0bd 15e7 e6be 1218 9d3e
00000350: b5f1 67be 9493 ecbd 7a03 01bd 2dc2 d03d
00000360: 4463 1cbe 6f24 e7be f14f c7bd 343e 2dbe
00000370: 829c 8bbe c6c6 c6bc 6066 d4bd d74b 6abd
00000380: 73fc cd3a b226 403d 9d06 a63d 7772 f23d
00000390: c02b 86bd 332c cf3d aece 043e a6f7 2b3d
000003a0: f58c 973d 6278 753b 70ff 0a3e c571 15be
000003b0: 3648 84bc 825b 093c 84d8 a9bd aa53 66bd
000003c0: c106 9f3c 06ad 98bd db5c 76bd 02d4 8dbd
000003d0: 92b6 06be 0f47 2e3d 2256 99be c9b9 96be
000003e0: 217a cc3c 9b56 5fbe 75a7 a3bd 5b85 993c
000003f0: 1198 ac3d 230b 963e 85c9 41bd 3081 e6bd

model.3.bias f4 [32]
0.054093696 0.011664328 0.035421707 -0.1412985 -0.07298429 -0.029706722 -0.08130366 -0.010912148
-0.024887705 -0.10660187 -0.08838193 -0.21102704 0.008292498 -0.17129804 -0.1872531 -0.3499889
-0.033565983 -0.09208723 -0.17295967 -0.07118957 -0.11797551 0.016281461 0.0004204335 0.098124385
0.07046563 -0.097280934 0.015794273 -0.022669433 -0.05223186 -0.059750777 -0.027592398 0.012247529
00000000: 5a91 5d3d bd1b 3f3c 5a16 113d 8eb0 10be
00000010: ca78 95bd 835b f3bc 8982 a6bd dec8 32bc
00000020: 4de1 cbbc 1552 dabd 9601 b5bd 7917 58be
00000030: 42dd 073c c168 2fbe 47bf 3fbe bf31 b3be
00000040: 7c7c 09bd 3b98 bcbd 571c 31be d6cb 91bd
00000050: 259d f1bd b360 853c a16d dc39 70f5 c83d
00000060: 4950 903d 3a3b c7bd fe62 813c 3fb5 b9bc
00000070: 13f1 55bd 3bbd 74bd 7409 e2bc dca9 483c

model.6.weight f4 [32]
1.3737532 1.9059422 1.5031055 1.4730018 1.343871 1.6959993 1.2873743 1.4483439
1.5235815 1.4990991 1.4380679 1.994105 1.3921856 1.3060306 1.401301 2.3603487
1.5617825 1.8623075 1.4881946 1.4578861 1.765452 1.3167964 1.5275543 1.3005201
1.3438545 1.7198807 1.4314772 1.5032235 1.4297421 1.606141 1.5087523 1.4459383
00000000: 25d7 af3f eaf5 f33f c365 c03f 538b bc3f
00000010: f703 ac3f 8116 d93f aec8 a43f 5563 b93f
00000020: b804 c33f 7be2 bf3f 9c12 b83f d53e ff3f
00000030: 2333 b23f 032c a73f d55d b33f f40f 1740
00000040: 7de8 c73f 1860 ee3f 297d be3f 039c ba3f
00000050: 55fa e13f c98c a83f e686 c33f 7177 a63f
00000060: 6d03 ac3f 0d25 dc3f a53a b73f a169 c03f
00000070: ca01 b73f 0796 cd3f cc1e c13f 8214 b93f

model.6.bias f4 [32]
0.056164637 0.08999031 -0.116581306 0.07617059 0.04008929 0.022083674 -0.06457357 0.039792944
0.19513622 0.09831771 0.04460436 0.0015829499 0.097012036 0.08376751 0.032061927 0.008843297
0.053933892 -0.034020774 0.049667574 0.053158157 0.033384778 0.0623067 0.01206591 -0.07794905
0.006517356 0.06617566 -0.086928666 -0.1340477 0.11199496 0.04873579 0.029866394 -0.0014301506
00000000: e40c 663d d74c b83d 2ec2 eebd 54ff 9b3d
00000010: ab34 243d d2e8 b43c 263f 84bd edfd 223d
00000020: cad1 473e cc5a c93d 10b3 363d fc7a cf3a
00000030: 3fae c63d 4d8e ab3d 5e53 033d 7ae3 103c
00000040: c9e9 5c3d 5e59 0bbd 3a70 4b3d 5ebc 593d
00000050: 7abe 083d 4f35 7f3d 18b0 453c c0a3 9fbd
00000060: 8b8f d53b 1b87 873d a807 b2bd cd43 09be
00000070: 9d5d e53d 2e9f 473d 5eaa f43c e473 bbba

model.6.running_mean f4 [32]
0.035487838 0.04301179 0.0014104982 0.019711848 -0.0089378115 0.0068912874 0.07349172 -0.024241565
0.029471166 0.051854692 0.06392886 0.011301094 -0.046773765 -0.010153381 0.0019041012 -0.019924054
0.054869488 0.023130469 0.004642823 0.033156168 0.03495963 -0.006967312 0.006056788 -0.0046134572
-0.013428227 0.02037126 -0.027762506 -0.0028087355 0.06639916 0.07580087 0.033106226 0.03377617
00000000: b25b 113d 212d 303d 77e0 b83a be7a a13c
00000010: e66f 12bc 4fd0 e13b d482 963d 3f96 c6bc
00000020: 846d f13c 9665 543d 22ed 823d 3928 393c
00000030: d995 3fbd 5e5a 26bc 0993 f93a c537 a3bc
00000040: d4be 603d 1c7c bd3c d222 983b c3ce 073d
00000050: d431 0f3d 0d4e e4bb 0578 c63b 7c2c 97bb
00000060: 1102 5cbc a1e1 a63c 326e e3bc c312 38bb
00000070: 48fc 873d 7d3d 9b3d 659a 073d e258 0a3d

model.6.running_var f4 [32]
0.06254181 0.039682876 0.047366396 0.082072794 0.027995436 0.02079726 0.07440177 0.03686714
0.045970336 0.10744211 0.06310629 0.02293633 0.025798324 0.02733286 0.057299435 0.018521473
0.054154973 0.039533705 0.065202445 0.07017685 0.038303636 0.077858396 0.02701383 0.024975998
0.03373906 0.043229565 0.020971773 0.016374027 0.11989566 0.08262891 0.11397354 0.046516944
00000000: ec15 803d 838a 223d 4403 423d c815 a83d
00000010: af56 e53c 045f aa3c f55f 983d 0002 173d
00000020: 644b 3c3d 9c0a dc3d df3d 813d f8e4 bb3c
00000030: 0257 d33c 29e9 df3c d0b2 6a3d 58ba 973c
00000040: 9bd1 5d3d 18ee 213d dc88 853d e1b8 8f3d
00000050: 46e4 1c3d 3974 9f3d 1c4c dd3c 779a cc3c
00000060: f831 0a3d 7c11 313d ffcc ab3c d322 863c
00000070: db8b f53d 5939 a93d f66a e93d 8d88 3e3d

model.7.weight f4 [64, 32, 3, 3]
-0.058471177 -0.05986328 0.091541074 -0.035029426 -0.14420752 -0.08709904 0.09777909 -0.04148036
-0.0999189 0.1255288 -0.018549519 -0.0022599478 0.030680785 0.04738299 0.044709463 -0.36173075
-0.042766817 0.037862573 0.057437968 0.022650244 0.07554556 0.0666855 0.020643279 -0.027301943
0.06835655 -0.040959235 0.009843098 0.019980736 -0.00085970195 0.16424146 -0.0051295515 -0.017592873
-0.16686372 -0.10249277 -0.039734453 0.00840212 -0.07664404 -0.01060309 -0.05036864 0.0047061844
0.2531847 0.02883451 0.12231604 -0.11268331 -0.043948174 0.14359741 0.16716664 0.037312336
0.111532696 0.08838437 0.0815223 -0.28864908 0.016449222 0.060251124 -0.1037322 -0.13095884
0.027282039 -0.06210298 0.042696882 -0.0029155249 0.038361344 0.20004384 -0.022691324 0.013363087
0.09493105 0.088949814 -0.030618036 -0.071460545 -0.0071977493 0.03486904 -0.042887263 0.028960949
0.15156245 0.102232486 0.018548246 0.08306829 -0.12980348 0.012820761 -0.026708772 -0.011658621
0.006634575 -0.0042128796 -0.067971334 0.056667417 0.022699598 0.121352375 0.02086226 -0.20224242
0.020185217 0.019650022 -0.10487659 -0.14543901 -0.040442985 -0.0021237747 0.06310475 -0.003943587
0.10916576 0.038906176 -0.097376354 -0.030284146 0.015174156 0.09982611 0.033116378 0.12794878
0.059421033 -0.27164862 -0.22964142 0.03995512 -0.008963117 0.04976683 0.10782025 0.05439043
0.039911848 -0.07268398 0.29222083 0.037243895 -0.070207365 -0.03205295 -0.063753136 -0.01826207
-0.025102083 0.063001804 0.020459423 0.1866751 0.07771475 0.03347825 0.04861741 -0.022793315
-0.008571973 0.035010356 -0.004029749 0.16674647 -0.034051176 -0.02595151 0.030672 -0.3747868
0.19749533 -0.0036080847 -0.094851114 -0.1208543 -0.026958454 -0.7215397 -0.09355865 -0.115231834
0.039100002 -0.05139944 -0.05236174 0.014680606 0.023575557 0.008052716 -0.0693448 0.05955713
0.05177889 -0.016707404 -0.002157543 -0.032960128 -0.16146632 -0.078809276 0.045246013 0.073370546
-0.028183972 0.17937922 0.05247914 -0.028738305 0.0028344535 -0.039359044 0.06516001 -0.029391075
-0.15344323 -0.024857955 0.011049648 0.07438062 -0.008254044 -0.14563861 0.14081545 0.013386853
0.014902966 0.16296609 -0.06028332 0.034613986 0.07321332 -0.13193649 0.1539721 0.01337032
0.15623122 -0.11444349 -0.16279598 0.004550932 -0.07672579 0.03400892 0.09336468 0.21848916
-0.05879464 -0.14687629 0.0026926594 0.10118309 -0.0069859726 -0.026492244 -0.1277893 -0.07048058
0.051922396 -0.03846108 -0.024036577 0.026225405 0.079538815 0.06243486 -0.08108382 -0.008315079
-0.05824749 0.11855218 0.08276429 0.06560839 -0.08473093 0.109189846 -0.10052909 -0.016419666
-0.11671531 -0.092952885 -0.07614125 -0.04169865 0.00664525 -0.06319553 0.19309133 0.008452242
-0.0005368997 0.13999277 0.04650386 0.03871521 0.03120884 -0.0127239395 -0.05529202 0.053959206
0.047622774 -0.00606809 -0.10567662 0.041771315 0.012709908 -0.03782238 -0.08954484 -0.039199498
-0.30086833 0.09231135 -0.025763445 0.022576392 0.09928956 0.102013715 -0.015190914 0.03434048
-0.16233346 0.04992833 -0.19828375 -0.017218195 -0.011848491 0.02721058 0.16126937 -0.01063422
00000000: 797f 6fbd 3333 75bd e379 bb3d 047b 0fbd
00000010: 23ab 13be fb60 b2bd 6740 c83d 4fe7 29bd
00000020: 48a2 ccbd 9f8a 003e 29f5 97bc a21b 14bb
00000030: 4556 fb3c ab14 423d 4521 373d c634 b9be
00000040: 422c 2fbd c915 1b3d 1344 6b3d 018d b93c
00000050: a1b7 9a3d 6892 883d 181c a93c 53a8 dfbc
00000060: 85fe 8b3d dfc4 27bd f244 213c a4ae a33c
00000070: 9f5d 61ba ea2e 283e cc15 a8bb ee1e 90bc
00000080: 53de 2abe bbe7 d1bd 98c0 22bd 0ca9 093c
00000090: 8df7 9cbd 95b8 2dbc 594f 4ebd 5636 9a3b
000000a0: 6da1 813e 5a36 ec3c d580 fa3d 82c6 e6bd
000000b0: 0003 34bd 330b 133e bb2d 2b3e d2d4 183d
000000c0: 416b e43d dd02 b53d 2af5 a63d d0c9 93be
000000d0: 85c0 863c e2c9 763d 8c71 d4bd 131a 06be
000000e0: 957e df3c b25f 7ebd ede2 2e3d 6412 3fbb
000000f0: c920 1d3d 4bd8 4c3e 28e3 b9bc d9f0 5a3c
00000100: 366b c23d 522b b63d add2 fabc e859 92bd
00000110: 19db ebbb d7d2 0e3d 8eaa 2fbd 833f ed3c
00000120: 3033 1b3e 445f d13d 7ef2 973c b51f aa3d
00000130: 34eb 04be 2b0e 523c 5bcc dabc cd03 3fbc
00000140: d966 d93b 320c 8abb 8e34 8bbd 181c 683d
00000150: 82f4 b93c 9887 f83d 55e7 aa3c a318 4fbe
00000160: 785b a53c 15f9 a03c 8ac9 d6bd f7ed 14be
00000170: 8ba7 25bd 072f 0bbb 103d 813d 3539 81bb
00000180: 4c92 df3d 155c 1f3d 416d c7bd 7516 f8bc
00000190: 069d 783c a271 cc3d 0aa5 073d 0105 033e
000001a0: 7863 733d 8715 8bbe 1f27 6bbe fba7 233d
000001b0: 0ada 12bc 4ed8 4b3d ddd0 dc3d 80c8 5e3d
000001c0: 9b7a 233d 57db 94bd f89d 953e 0e8d 183d
000001d0: e1c8 8fbd f449 03bd 0191 82bd 569a 95bc
000001e0: e2a2 cdbc 1707 813d 859a a73c c227 3f3e
000001f0: e928 9f3d 7d20 093d 0d23 473d 0cb9 babc
00000200: 7671 0cbc 0567 0f3d fc0b 84bb 96bf 2a3e
00000210: 3f79 0bbd 4398 d4bc d943 fb3c 0ee4 bfbe
00000220: 373c 4a3e 9e75 6cbb 4d41 c2bd 7682 f7bd
00000230: fad7 dcbc d3b6 38bf ad9b bfbd abfe ebbd
00000240: 5327 203d 3888 52bd 4479 56bd ed86 703c
00000250: 8721 c13c 8aef 033c a604 8ebd 2df2 733d
00000260: 1a16 543d f7dd 88bc 9165 0dbb 3301 07bd
00000270: 6d57 25be c266 a1bd e253 393d 4c43 963d
00000280: 13e2 e6bc 30af 373e 5ef4 563d 986c ebbc
00000290: 3dc2 393b f336 21bd 9c72 853d 8dc5 f0bc
000002a0: 3920 1dbe e9a2 cbbc 9509 353c de54 983d
000002b0: f83b 07bc 4a22 15be ed31 103e 8854 5b3c
000002c0: 922b 743c 95e0 263e a4eb 76bd 65c7 0d3d
000002d0: ddf0 953d 5c1a 07be ddaa 1d3e 300f 5b3c
000002e0: 14fb 1f3e 5961 eabd fdb3 26be fc1f 953b
000002f0: 6922 9dbd f04c 0b3d fb35 bf3d 9fbb 5f3e
00000300: a6d2 70bd bd66 16be 5477 303b 1439 cf3d
00000310: 96ea e4bb 4306 d9bc 33db 02be 1f58 90bd
00000320: 94ac 543d 5e89 1dbd 5be8 c4bc a9d6 d63c
00000330: 3fe5 a23d b2bb 7f3d 460f a6bd f83b 08bc
00000340: ec94 6ebd 7ccb f23d 5380 a93d b15d 863d
00000350: 6987 adbd ed9e df3d 32e2 cdbd 8982 86bc
00000360: 7008 efbd 155e bebd f2ef 9bbd 34cc 2abd
00000370: 66c0 d93b a86c 81bd bcb9 453e 467b 0a3c
00000380: bbbe 0cba 445a 0f3e d57a 3e3d d793 1e3d
00000390: aea9 ff3c 1278 50bc e379 62bd 5404 5d3d
000003a0: 1910 433d d4d6 c6bb fc6c d8bd 6618 2b3d
000003b0: 383d 503c a4eb 1abd 4963 b7bd a78f 20bd
000003c0: 6a0b 9abe bc0d bd3d dc0d d3bc 20f2 b83c
000003d0: 5358 cb3d 91ec d03d 50e3 78bc 9aa8 0c3d
000003e0: be3a 26be a681 4c3d e50a 4bbe 2c0d 8dbc
000003f0: 2c20 42bc b9e8 de3c cc23 253e 273b 2ebc

model.7.bias f4 [64]
-0.13047817 -0.099056825 -0.16551252 -0.17965065 -0.12128092 -0.2003595 -0.16366093 -0.069409415
-0.1749406 -0.06130261 -0.23726037 -0.20699279 -0.23717485 -0.15548573 -0.18344681 -0.19221579
-0.25526366 -0.11641294 -0.14774318 -0.16519156 -0.16085911 -0.13925627 -0.026556851 -0.22963156
-0.2471255 -0.22070694 -0.21004094 -0.049782466 -0.11400414 -0.12731726 -0.19511472 -0.11737585
-0.28824884 -0.07556085 -0.24039446 -0.06368304 -0.109043434 -0.13572337 -0.26016703 -0.15169688
-0.13062194 -0.07287752 -0.17043506 -0.1287381 -0.11304745 -0.0058161784 -0.040846113 -0.021396067
-0.1655541 -0.23827411 -0.1558031 -0.15951611 -0.18845408 -0.12110823 -0.13415979 -0.14801168
-0.11975845 -0.09180472 -0.14157817 -0.111112036 -0.2223492 -0.11843088 -0.113542885 -0.13582553
00000000: 129c 05be 4ede cabd 1d7c 29be 57f6 37be
00000010: 2262 f8bd 0a2b 4dbe bb96 27be 8626 8ebd
00000020: a123 33be 7218 7bbd 62f4 72be ebf5 53be
00000030: f7dd 72be a737 1fbe 7bd9 3bbe 37d4 44be
00000040: ebb1 82be e869 eebd fd49 17be fa27 29be
00000050: 40b8 24be 3299 0ebe c18d d9bc 8924 6bbe
00000060: 780e 7dbe 0001 62be f914 57be b3e8 4bbd
00000070: 017b e9bd 755f 02be 27cc 47be c062 f0bd
00000080: 5a95 93be a6bf 9abd f729 76be 416c 82bd
00000090: 2a52 dfbd 11fb 0abe 9d34 85be 6d56 1bbe
000000a0: c2c1 05be cf40 95bd 8786 2ebe ecd3 03be
000000b0: 6c85 e7bd a495 bebb 414e 27bd ce46 afbc
000000c0: 0487 29be 21fe 73be d98a 1fbe 3158 23be
000000d0: 1bfa 40be 9707 f8bd 2f61 09be 6090 17be
000000e0: eb43 f5bd 1d04 bcbd def9 10be b58e e3bd
000000f0: 82af 63be e48b f2bd 2c89 e8bd d915 0bbe

model.10.weight f4 [64]
1.5245018 1.5079167 1.5377696 1.604474 1.3797952 1.5451716 1.6690989 1.7296152
1.2916569 1.3016179 1.4363521 1.4991095 1.7199732 1.5710849 1.5586637 1.6110059
1.7841178 1.6234891 1.567812 1.5183742 1.3764806 1.858704 1.6339974 1.8687938
1.513228 1.6298018 1.8060014 1.6877363 1.6811763 1.5808923 1.5899636 1.4282882
1.527203 1.7893519 1.672953 1.4292171 1.4606036 1.428147 1.400856 1.4679067
1.5231528 1.6064931 1.6866676 1.4084915 1.5133454 1.6567043 1.4532475 1.4990656
1.7879739 1.5430708 1.7229613 1.2686063 1.4901274 1.7045537 1.6465408 1.4562895
1.6677159 1.6411897 1.3389088 1.4943129 1.4002519 1.6441498 1.3962654 1.7140435
00000000: e022 c33f 6a03 c13f a2d5 c43f 675f cd3f
00000010: 219d b03f 2fc8 c53f 08a5 d53f 0864 dd3f
00000020: 0355 a53f 6a9b a63f 63da b73f d2e2 bf3f
00000030: 1528 dc3f 4f19 c93f 4b82 c73f 7135 ce3f
00000040: f95d e43f 7ece cf3f 10ae c83f 165a c23f
00000050: 8430 b03f 03ea ed3f d426 d13f a334 ef3f
00000060: 75b1 c13f 589d d03f 0e2b e73f be07 d83f
00000070: c930 d73f ae5a ca3f ed83 cb3f 26d2 b63f
00000080: 637b c33f 7c09 e53f 5323 d63f 96f0 b63f
00000090: 0ff5 ba3f 85cd b63f 404f b33f 5ee4 bb3f
000000a0: acf6 c23f 91a1 cd3f b9e4 d73f 7349 b43f
000000b0: 4db5 c13f e30e d43f 0404 ba3f 62e1 bf3f
000000c0: 54dc e43f 5883 c53f ff89 dc3f b161 a23f
000000d0: 7fbc be3f d12e da3f d9c1 d23f b267 ba3f
000000e0: b777 d53f 8112 d23f 5d61 ab3f a545 bf3f
000000f0: 743b b33f 8073 d23f d3b8 b23f c765 db3f

model.10.bias f4 [64]
0.19686525 0.08664164 -0.128078 0.17308821 0.009853209 0.05229338 0.18044409 0.11798803
0.17848757 0.12162424 0.34825295 -0.10939196 0.11527761 -0.002729238 0.20492145 0.124400996
0.06520283 -0.2143935 -0.05060016 -0.12541099 0.11001804 0.13139464 -0.08056417 0.4073608
0.4610032 0.117184676 -0.14442445 0.19452745 -0.07358178 0.21822447 0.17273259 0.18939412
0.23842072 0.17817116 -0.034409154 0.19598518 0.12459485 -0.10152506 0.2096229 0.10320043
0.10773611 -0.15679933 0.15298136 -0.09448447 0.14326306 0.03352651 -0.25529984 -0.094652005
-0.14704695 0.23199348 -0.028719008 0.21087515 0.16025122 -0.15435381 0.12400847 -0.14000173
-0.027534667 0.037513442 -0.011615441 0.19529021 0.33074397 0.07517288 -0.06858331 -0.06607535
00000000: 0b97 493e 2c71 b13d e126 03be 093e 313e
00000010: 5b6f 213c 9531 563d 56c6 383e b5a3 f13d
00000020: 72c5 363e 2116 f93d 364e b23e e408 e0bd
00000030: ab16 ec3d 04dd 32bb eed6 513e f3c5 fe3d
00000040: 1089 853d f889 5bbe 1d42 4fbd bd6b 00be
00000050: 2351 e13d 518c 063e d4fe a4bd 9891 d03e
00000060: 9d08 ec3e 85fe ef3d 01e4 13be 3432 473e
00000070: 0bb2 96bd 3c76 5f3e d0e0 303e 88f0 413e
00000080: 9024 743e 8072 363e 9df0 0cbd 57b0 483e
00000090: 962b ff3d 5fec cfbd 63a7 563e bf5a d33d
000000a0: c0a4 dc3d 0190 20be 25a7 1c3e 1381 c1bd
000000b0: 8db3 123e 1853 093d a9b6 82be e9d8 c1bd
000000c0: 7a93 16be b38f 6d3e 2044 ebbc a8ef 573e
000000d0: e518 243e ed0e 1ebe 27f8 fd3d 9d5c 0fbe
000000e0: 6290 e1bc b2a7 193d b14e 3ebc 28fa 473e
000000f0: 4657 a93e 3df4 993d 6875 8cbd 8352 87bd

model.10.running_mean f4 [64]
0.24844617 0.123630226 0.0038528524 0.06007317 0.047676172 0.05334385 0.1286268 0.13451052
0.373184 0.15498392 0.07911606 0.027326295 0.079996444 0.08146187 0.083050825 0.04386402
0.04634984 0.052451715 -0.034860253 0.0837355 0.21773116 0.06062214 0.060764063 0.09086164
0.097771294 0.060343746 0.010079788 0.10185407 0.08114305 0.23298249 0.0936396 0.018691069
0.07891347 0.09280974 -0.007519149 0.13263936 0.020880312 0.04148582 0.03683062 0.034160078
0.16079395 0.08657377 0.089162685 0.01238548 0.13067262 0.1954566 -0.016155649 0.023372103
0.04738602 0.10643861 0.032862443 0.26692542 0.050972722 0.009803601 0.063652 -0.013250039
0.022817265 0.06942952 0.051055137 0.018366914 0.023194268 0.022148171 0.1040955 0.05498212
00000000: ac68 7e3e d831 fd3d 2380 7c3b 490f 763d
00000010: 1748 433d 157f 5a3d beb6 033e 20bd 093e
00000020: f911 bf3e 1bb4 1e3e 9a07 a23d 65db df3c
00000030: 2dd5 a33d 7bd5 a63d 8d16 aa3d c2aa 333d
00000040: 54d9 3d3d 9cd7 563d a0c9 0ebd 857d ab3d
00000050: ebf4 5e3e ec4e 783d bde3 783d ab15 ba3d
00000060: 513c c83d 012b 773d b225 253c de98 d03d
00000070: 542e a63d f692 6e3e 1ec6 bf3d 031e 993c
00000080: 639d a13d 0813 be3d 3263 f6bb 9dd2 073e
00000090: 300d ab3c 09ed 293d b4db 163d 70eb 0b3d
000000a0: 2ba7 243e 974d b13d ed9a b63d 78ec 4a3c
000000b0: 0bcf 053e c625 483e da58 84bc da76 bf3c
000000c0: d817 423d 7cfc d93d c59a 063d 73aa 883e
000000d0: c6c8 503d 489f 203c fb5b 823d b116 59bc
000000e0: 46eb ba3c 1031 8e3d 311f 513d 3676 963c
000000f0: e801 be3c 1570 b53c 0630 d53d ee34 613d

model.10.running_var f4 [64]
0.4985265 0.28360224 0.12947346 0.21036081 0.21148023 0.30468386 0.3445433 0.3186563
1.4476507 0.33294916 0.21039845 0.17446597 0.271369 0.34160715 0.22399628 0.22867504
0.14903551 0.13719358 0.16726565 0.30065915 0.43059814 0.26209453 0.2263371 0.28952926
0.45162722 0.16753665 0.13442548 0.31948423 0.30779913 0.655416 0.26514715 0.19500586
0.2456635 0.353051 0.15897739 0.2429536 0.07820935 0.22343689 0.19595554 0.23504004
0.37263379 0.3328846 0.33275104 0.12326038 0.26095334 0.44742885 0.10434519 0.11911373
0.23166546 0.2848372 0.2048514 0.6674281 0.20904623 0.19099958 0.13612144 0.0994639
0.1541872 0.3492885 0.110464394 0.14816949 0.2204416 0.14015917 0.23392305 0.26322624
00000000: de3e ff3e 5034 913e b194 043e d368 573e
00000010: 468e 583e 86ff 9b3e fb67 b03e eb26 a33e
00000020: 9e4c b93f 5078 aa3e b172 573e 35a7 323e
00000030: e1f0 8a3e 22e7 ae3e 485f 653e ca29 6a3e
00000040: c49c 183e 797c 0c3e b047 2b3e ffef 993e
00000050: 5c77 dc3e 4131 863e eac4 673e 2e3d 943e
00000060: af3b e73e ba8e 2b3e d5a6 093e 7093 a33e
00000070: d997 9d3e 58c9 273f 5ec1 873e 9eaf 473e
00000080: 368f 7b3e 1ac3 b43e f8ca 223e d4c8 783e
00000090: 392c a03d a4cc 643e 92a8 483e 56ae 703e
000000a0: dbc9 be3e da6f aa3e 585e aa3e f06f fc3d
000000b0: ad9b 853e 6515 e53e eeb2 d53d e6f1 f33d
000000c0: b639 6d3e 2ed6 913e 91c4 513e 91dc 2a3f
000000d0: 3710 563e 6595 433e 6b63 0b3e bbb3 cb3d
000000e0: 40e3 1d3e f1d5 b23e 283b e23d beb9 173e
000000f0: 71bb 613e e385 0f3e 8689 6f3e 97c5 863e

model.11.weight f4 [128, 64, 3, 3]
-0.036909714 -0.034232453 0.008149084 -0.14528665 -0.08087283 0.009444566 -0.065347634 0.06050826
-0.04245375 0.14632173 0.0033451344 0.017962048 0.17177992 0.04165636 -0.0507845 -0.0973978
-0.15494587 -0.07088129 0.26019573 -0.10875614 -0.04378359 0.17168061 -0.17208663 -0.087654315
-0.027987767 -0.047983896 0.011202768 0.21957164 0.17125012 0.027642084 0.17767058 0.10220102
0.00013843534 -0.33841527 -0.027732652 -0.029494127 0.0201493 -0.015572703 -0.08815129 9.448833e-05
0.005068386 -0.1494845 0.010206586 0.06691447 -0.028815927 0.026155675 0.14998323 0.12448721
0.24785464 0.26759908 -0.035588596 0.14820234 -0.19357747 -0.00457934 0.08808567 0.06446301
0.09703176 -0.041823905 -0.14800085 0.032086972 -0.037282024 -0.1165256 -0.03058245 -0.055453785
0.119762555 -0.00088483526 -0.16826858 0.12625962 0.025077611 -0.24497473 -0.14520441 -0.024735717
0.18606816 0.04798698 0.031762153 -0.016113576 0.011893604 -0.034676146 -0.08494576 -0.06523227
-0.03477202 0.04825402 0.05645525 -0.012907781 0.101048574 0.07007214 -0.01710433 -0.020537598
-0.092437424 -0.020645896 0.14277463 0.10439335 -0.032414358 -0.12322557 -0.070126906 -0.103193365
-0.034316927 0.023206549 -0.026975174 -0.05307673 -0.008353602 0.039242465 0.08378986 -0.017749252
0.0030543297 0.017503725 -0.13601846 -0.10004235 -0.03177224 -0.2134489 -0.06860054 0.094019674
0.20013869 0.08773998 0.1230028 -0.06274109 -0.060899306 0.11598702 0.004375587 0.046520125
0.13641103 -0.26881245 0.067666434 -0.2892277 0.14409246 -0.010335815 0.087970756 -0.09017113
-0.010005112 0.091247514 0.07592676 -0.08149413 0.07191989 -0.061342146 -0.050861232 0.017088002
-0.0020240736 0.094339706 0.009720397 -0.04429565 -0.09941613 -0.04271746 -0.009479467 -0.0072420123
0.08828911 -0.032797493 -0.19964728 0.002467805 -0.06644148 -0.13655332 0.040494736 0.14674467
-0.039466433 -0.07292099 0.057877056 -0.062125377 0.043321505 -0.12489744 0.0061755083 0.038060512
0.15850802 0.0077196653 -0.012075503 0.03303651 -0.01943349 0.10515123 0.083944745 -0.10225025
-0.27915186 0.12389278 0.04450864 0.10679925 0.27920917 0.025720265 0.079736404 0.023516754
0.038002845 0.05215094 -0.053384047 -0.0008624799 0.005539584 0.0024472496 0.0025974724 0.0034067947
-0.08520121 0.16177598 0.060780205 -0.05210231 -0.0101422565 -0.06708161 -0.078075714 -0.019352239
-0.005128185 -0.07271864 -0.043225624 -0.093555205 -0.059331115 -0.0039717746 -0.036659308 -0.018639468
-0.058053758 0.004750129 -0.041297015 -0.07564867 0.22675197 0.0027770896 0.03737398 -0.1431928
-0.050454248 -0.021952076 -0.11225408 -0.015550243 -0.0024136652 0.015360236 0.010140685 -0.008805145
0.0012100615 -0.0026922962 -0.010144758 -0.025336344 -0.02597985 -0.06846881 -0.16795692 -0.10470317
0.0021230602 -0.10646839 0.004041827 0.009175862 -0.19982259 -0.25638604 -0.03902806 0.03230951
0.044023585 -0.010322729 0.07443705 -0.06286853 -0.07137656 0.2503421 0.074256785 -0.0068917386
-0.13517521 0.13789329 0.018754888 -0.017776918 -0.0003072105 -0.0034915383 -0.07913087 0.038416643
0.06585358 -0.19566981 0.075606346 -0.0071958317 0.025385618 0.06612203 0.07873167 0.058746815
00000000: a42e 17bd 5437 0cbd bc83 053c 06c6 14be
00000010: a7a0 a5bd 62bd 1a3c fbd4 85bd 82d7 773d
00000020: fce3 2dbd 5dd5 153e 0b3a 5b3b 2525 933c
00000030: 13e7 2f3e dc9f 2a3d 6803 50bd 7f78 c7bd
00000040: 21aa 1ebe 362a 91bd 6038 853e 8abb debd
00000050: 6c56 33bd 0bcd 2f3e 7a37 30be 1b84 b3bd
00000060: 9a46 e5bc c38a 44bd d18b 373c 63d7 603e
00000070: 315c 2f3e a771 e23c 47ef 353e c54e d13d
00000080: f428 1139 c444 adbe 962f e3bc ab9d f1bc
00000090: 2510 a53c a724 7fbc aa88 b4bd 0928 c638
000000a0: b414 a63b 7712 19be 8639 273c 740a 893d
000000b0: 610f ecbc 6d44 d63c 3495 193e 26f3 fe3d
000000c0: 9bcd 7d3e bf02 893e 59c5 11bd 5bc2 173e
000000d0: 2c39 46be 4a0e 96bb 4266 b43d 2f05 843d
000000e0: 96b8 c63d 8b4f 2bbd 898d 17be a16d 033d
000000f0: 09b5 18bd f9a4 eebd 0c88 fabc 8223 63bd
00000100: 1246 f53d 4af4 67ba 994e 2cbe 344a 013e
00000110: 906f cd3c a8da 7abe 77b0 14be 8fa2 cabc
00000120: a788 3e3e ff8d 443d 0819 023d 9e00 84bc
00000130: 64dd 423c 9308 0ebd 0bf8 adbd 7f98 85bd
00000140: 1b6d 0ebd 02a6 453d 9f3d 673d 287b 53bc
00000150: 8ef2 ce3d fb81 8f3d 611e 8cbc 773e a8bc
00000160: d54f bdbd 9521 a9bc 8333 123e 2ecc d53d
00000170: ebc4 04bd b05d fcbd b29e 8fbd 0b57 d3bd
00000180: e88f 0cbd a91b be3c 0afb dcbc fc66 59bd
00000190: 8cdd 08bc b5bc 203d 059a ab3d e166 91bc
000001a0: 262b 483b f963 8f3c 6c48 0bbe 01e3 ccbd
000001b0: 9c23 02bd 5992 5abe 717e 8cbd 638d c03d
000001c0: 28f1 4c3e 05b1 b33d e4e8 fb3d 677e 80bd
000001d0: 8d71 79bd 9a8a ed3d 1661 8f3b e38b 3e3d
000001e0: 55af 0b3e c9a1 89be b394 8a3d a715 94be
000001f0: f98c 133e 8d57 29bc 032a b43d a4ab b8bd
00000200: 7bec 23bc fadf ba3d 7d7f 9b3d 65e6 a6bd
00000210: bc4a 933d e741 7bbd de53 50bd 23fc 8b3c
00000220: 52a6 04bb 2d35 c13d 4d42 1f3c 5b6f 35bd
00000230: af9a cbbd 81f8 2ebd c44f 1bbc 674e edbb
00000240: ecd0 b43d aa56 06bd 5670 4cbe e6ba 213b
00000250: 7812 88bd a2d4 0bbe cfdd 253d 3c44 163e
00000260: 8ea7 21bd 9a57 95bd 7e10 6d3d 2e77 7ebd
00000270: e471 313d 3bca ffbd eb5b ca3b 57e5 1b3d
00000280: ed4f 223e 3ff5 fc3b 55d8 45bc 4b51 073d
00000290: fb32 9fbc 8759 d73d 39eb ab3d 9468 d1bd
000002a0: feec 8ebe 7fbb fd3d b14e 363d 91b9 da3d
000002b0: 81f4 8e3e 4eb3 d23c d74c a33d 35a6 c03c
000002c0: dfa8 1b3d 399c 553d 3ba9 5abd 0c18 62ba
000002d0: 6685 b53b 0962 203b 5b3a 2a3b 8844 5f3b
000002e0: f97d aebd 9aa8 253e aaf4 783d 3b69 55bd
000002f0: b52b 26bc 1562 89bd 29e6 9fbd 9688 9ebc
00000300: 550a a8bb 83ed 94bd 5a0d 31bd df99 bfbd
00000310: 2f05 73bd a925 82bb 1228 16bd ccb1 98bc
00000320: c7c9 6dbd f8a6 9b3b 0f27 29bd b1ed 9abd
00000330: ab31 683e d5ff 353b 7515 193d 22a1 12be
00000340: 1da9 4ebd d7d4 b3bc 78e5 e5bd 72c6 7ebc
00000350: 952e 1ebb 80a9 7b3c 1e25 263c 7443 10bc
00000360: ed9a 9e3a 3c71 30bb 3336 26bc 2a8e cfbc
00000370: b2d3 d4bc 6039 8cbd e6fc 2bbe 9e6e d6bd
00000380: 0a23 0b3b 190c dabd 4d71 843b 5b56 163c
00000390: 4b9e 4cbe 0845 83be e3db 1fbd fa56 043d
000003a0: 1352 343d aa20 29bc 7472 983d 37c1 80bd
000003b0: e02d 92bd d72c 803e f113 983d 18d4 e1bb
000003c0: 5f6b 0abe e633 0d3e daa3 993c e6a0 91bc
000003d0: 1811 a1b9 4bd2 64bb 5e0f a2bd c55a 1d3d
000003e0: 3ede 863d ab5d 48be 80d7 9a3d 03cb ebbb
000003f0: 80f5 cf3c fd6a 873d 123e a13d 80a0 703d

model.11.bias f4 [128]
-0.08333908 -0.1967668 -0.06446396 -0.08568681 -0.113615915 -0.08625193 -0.11170645 -0.2289596
-0.20067984 -0.10088549 -0.24495247 -0.18735945 -0.16316314 -0.14492247 -0.14802955 -0.32779315
-0.08678454 -0.02558293 -0.0850729 -0.17743862 -0.08935338 -0.054261085 -0.21556078 -0.16321509
-0.062726304 -0.21562287 -0.017374458 0.1602037 -0.1715311 -0.22423938 -0.13007826 -0.25398517
-0.124746285 -0.11232245 -0.027062384 -0.1586818 -0.034105673 -0.39424342 -0.17748405 -0.13863027
-0.23933092 -0.07281533 -0.19879459 -0.11358973 -0.044253852 -0.11400821 -0.21751152 -0.12944974
-0.09191704 -0.09348091 -0.14004475 -0.12167315 -0.1504373 -0.120323196 -0.18862502 -0.0881544
-0.101205766 -0.1334346 -0.13030355 -0.4051464 -0.30725464 -0.09996296 -0.10732216 -0.14860313
-0.10393496 -0.21987045 -0.049794827 -0.07853755 -0.10956652 -0.2805337 -0.047641467 -0.12787679
-0.13716151 -0.07074576 -0.14310527 -0.162619 -0.13247743 -0.15908004 -0.14344099 -0.2600434
-0.18549792 -0.049053494 -0.19888133 -0.18039934 -0.30742654 -0.2769124 -0.19520716 -0.12515025
-0.035512272 -0.16002017 -0.057800684 -0.1356604 -0.16718477 -0.20154299 -0.12736312 -0.18989262
-0.22862296 -0.067999065 -0.13361521 -0.16213624 -0.09260374 -0.10829377 -0.3635082 -0.12613261
-0.20235658 -0.12311188 -0.20147714 -0.18307438 -0.098317795 -0.1650631 -0.20832925 -0.09527817
-0.19669573 -0.17753409 -0.15920061 -0.13644615 -0.037399143 -0.04937363 -0.24811082 -0.15682976
-0.14638573 -0.056718796 -0.11732993 -0.05241706 -0.09336803 0.013665206 -0.18302001 -0.16648456
00000000: aead aabd 3c7d 49be ae05 84bd 917c afbd
00000010: 76af e8bd daa4 b0bd 5ac6 e4bd 6374 6abe
00000020: 047f 4dbe 0d9d cebd d2d4 7abe 28db 3fbe
00000030: 3d14 27be 8e66 14be 0f95 17be 81d4 a7be
00000040: 18bc b1bd 4b93 d1bc b33a aebd 78b2 35be
00000050: e8fe b6bd df40 5ebd f7bb 5cbe db21 27be
00000060: a676 80bd 3ecc 5cbe e154 8ebc 700c 243e
00000070: d9a5 2fbe 029f 65be 3c33 05be 580a 82be
00000080: fb7a ffbd 5009 e6bd efb1 ddbc 7b7d 22be
00000090: 64b2 0bbd 46da c9be 61be 35be 18f5 0dbe
000000a0: 2a13 75be 3420 95bd cf90 4bbe bba1 e8bd
000000b0: 8743 35bd 237d e9bd 57bb 5ebe 798e 04be
000000c0: 003f bcbd eb72 bfbd e467 0fbe c62f f9bd
000000d0: 3c0c 1abe 026c f6bd eb26 41be 4b8a b4bd
000000e0: f844 cfbd 14a3 08be 4b6e 05be 596f cfbe
000000f0: 7b50 9dbe 61b9 ccbd b8cb dbbd 6b2b 18be
00000100: dadb d4bd b825 61be a9f5 4bbd 4cd8 a0bd
00000110: 6964 e0bd 1da2 8fbe b323 43bd 22f2 02be
00000120: 1174 0cbe 27e3 90bd 308a 12be 9885 26be
00000130: 2aa8 07be e1e5 22be 32e2 12be 6924 85be
00000140: 2bf3 3dbe 51ec 48bd 8ca7 4bbe 9bba 38be
00000150: 0367 9dbe 76c7 8dbe 63e4 47be 6327 00be
00000160: 5175 11bd 54dc 23be 69c0 6cbd 8fea 0abe
00000170: 7c32 2bbe 4961 4ebe 7a6b 02be 3673 42be
00000180: 231c 6abe 1843 8bbd 6dd2 08be 0b07 26be
00000190: 08a7 bdbd 20c9 ddbd bf1d babe e828 01be
000001a0: 9036 4fbe 1522 fcbd 0650 4ebe da77 3bbe
000001b0: d75a c9bd 4d06 29be 4354 55be 3421 c3bd
000001c0: 9b6a 49be 7fcb 35be 7c05 23be 8ab8 0bbe
000001d0: d82f 19bd 013c 4abd c310 7ebe fb97 20be
000001e0: 24e6 15be f851 68bd ad4a f0bd 45b3 56bd
000001f0: bd37 bfbd 07e4 5f3c 9969 3bbe ee7a 2abe

model.14.weight f4 [128]
1.7731922 1.6867 1.7701912 1.7041894 1.9133452 1.457916 1.6682668 1.6152586
1.527651 1.6013675 2.0068069 1.5866339 1.4295547 1.7459232 1.6930529 1.4801767
1.3645313 1.5446136 1.6232094 1.7063174 1.5360428 1.5605421 1.9451389 2.4600174
1.5760404 1.6472391 1.619032 2.3929262 1.6431905 1.5927924 1.5283018 1.743563
1.5253488 1.7819614 1.5657138 1.5280302 1.1539857 1.7097968 1.5824616 1.6492504
2.0754979 1.7331898 1.6916969 1.4836794 1.4182415 1.542748 1.5580178 1.5220417
1.5536424 1.3774925 1.8724017 1.5538027 1.547581 1.8342261 1.5836381 1.4689231
1.7966416 1.6052003 1.432969 1.7308604 1.7257661 1.6878542 1.7674109 1.4390409
1.4262316 1.5425043 1.4117029 1.4713919 1.6610022 1.6098942 1.6297992 1.6490422
1.5875362 1.0231494 1.8124613 1.5736725 1.5302057 1.7082663 2.3736432 1.7596862
1.7069795 1.5103501 1.2152271 2.118086 1.7249385 1.326058 1.6904312 1.7973808
1.7117536 1.6528119 1.5634062 1.2656131 1.7935915 1.5831422 1.646045 1.9977432
1.4552596 1.7315563 1.879976 1.6567007 1.5870467 1.603363 1.7501329 1.7633898
1.4525093 1.8219101 2.0057845 1.5227582 1.7401527 1.7836595 1.6415973 1.1697358
1.446693 1.5284152 1.3210547 1.957743 1.93871 1.5101684 1.3578084 1.2607385
1.7795959 1.6679683 1.8762962 1.6871402 1.7267188 1.090542 1.3685118 1.5637414
00000000: f6f7 e23f c9e5 d73f a095 e23f e122 da3f
00000010: 7fe8 f43f fe9c ba3f c489 d53f cbc0 ce3f
00000020: 118a c33f 9cf9 cc3f 866f 0040 d216 cb3f
00000030: a6fb b63f 697a df3f f5b5 d83f 6e76 bd3f
00000040: f6a8 ae3f e6b5 c53f 53c5 cf3f 9c68 da3f
00000050: 0d9d c43f d8bf c73f 50fa f83f ed70 1d40
00000060: b1bb c93f bbd8 d23f 713c cf3f b425 1940
00000070: 1154 d23f 9fe0 cb3f 659f c33f 132d df3f
00000080: a13e c33f 5017 e43f 4f69 c83f 7e96 c33f
00000090: ceb5 933f 9fda da3f 1a8e ca3f a31a d33f
000000a0: f5d4 0440 2ad9 dd3f 8689 d83f 35e9 bd3f
000000b0: f088 b53f c478 c53f 216d c73f 43d2 c23f
000000c0: c1dd c63f ad51 b03f dcaa ef3f 02e3 c63f
000000d0: 2217 c63f ecc7 ea3f a7b4 ca3f ac05 bc3f
000000e0: 5af8 e53f 3477 cd3f 876b b73f d58c dd3f
000000f0: e7e5 dc3f 9b0b d83f 853a e23f 7e32 b83f
00000100: c28e b63f c870 c53f aeb2 b43f 9256 bc3f
00000110: b89b d43f 0311 ce3f 439d d03f d113 d33f
00000120: 6334 cb3f 8ff6 823f bbfe e73f 1a6e c93f
00000130: c8dd c33f 78a8 da3f c5e9 1740 663d e13f
00000140: 4e7e da3f 2753 c13f 908c 9b3f b98e 0740
00000150: c9ca dc3f 45bc a93f 0d60 d83f 9310 e63f
00000160: be1a db3f 578f d33f b21d c83f 9cff a13f
00000170: 6894 e53f 67a4 ca3f 9ab1 d23f 0db6 ff3f
00000180: f245 ba3f a3a3 dd3f 0ea3 f03f c50e d43f
00000190: 5924 cb3f 003b cd3f 5b04 e03f c2b6 e13f
000001a0: d3eb b93f 5a34 e93f c65e 0040 bee9 c23f
000001b0: 53bd de3f f44e e43f dc1f d23f e7b9 953f
000001c0: 3c2d b93f 1ca3 c33f 5218 a93f 5397 fa3f
000001d0: a627 f83f 334d c13f aacc ad3f e15f a13f
000001e0: ccc9 e33f fc7f d53f 792a f03f 36f4 d73f
000001f0: 1f05 dd3f e196 8b3f 652b af3f ae28 c83f

model.14.bias f4 [128]
0.05312218 -0.044927772 0.032539394 0.033008277 0.03910165 -0.064589806 -0.038138814 -0.055284552
0.06990662 -0.026384356 -0.034683846 -0.032194756 -0.056923952 0.039240684 -0.053018454 -0.045169782
-0.046608344 0.040737852 0.040316116 -0.039894886 -0.02697799 -0.036445756 0.033859245 0.056069244
0.03480282 0.05928142 0.034323387 -0.035976503 0.044973485 -0.03292072 -0.010992864 0.021570275
0.039202157 0.031076776 0.021622466 -0.032450937 0.007340021 0.041001387 -0.033279646 -0.023536706
-0.02768853 0.042064458 -0.028433563 -0.0067643244 0.041174408 0.061229054 -0.017350515 -0.049213536
-0.03124161 -0.039834782 0.04463334 0.073257454 -0.024441583 0.017961377 0.05571066 -0.024086073
0.03876596 -0.026599187 -0.045513336 -0.05558869 0.035302192 0.02751852 0.036190145 0.05791274
0.029393857 -0.057458587 0.048289217 -0.030579828 -0.026882013 0.06779178 -0.036789592 -0.022848215
-0.053922858 0.014836965 -0.03198173 -0.022881 -0.059535537 -0.027560616 0.03606072 0.03100354
-0.053123932 -0.028973656 -0.046324264 -0.03471382 -0.047307897 -0.025609754 -0.044266813 0.04975929
-0.033097643 -0.026810687 0.052611355 0.057338107 0.032907207 0.0714355 -0.038350802 -0.030811945
0.06765796 0.03900419 0.025267582 0.057760812 -0.029187055 0.037650656 -0.06027568 0.005061463
0.04375586 0.034485914 0.0027796547 -0.031376395 0.0027918774 -0.052265458 -0.030648896 0.020482898
0.04064302 0.04682328 0.040149152 0.054218717 0.05676509 0.039750375 0.05587254 -0.0066976636
0.002341774 0.009735126 0.0352167 0.048770025 0.045915227 0.017579593 0.053604964 -0.047441475
00000000: a596 593d 2f06 38bd 0748 053d b033 073d
00000010: 0d29 203d a947 84bd 7237 1cbd 0e72 62bd
00000020: 342b 8f3d 0124 d8bc a610 0ebd a6de 03bd
00000030: 1729 69bd d7ba 203d e129 59bd f303 39bd
00000040: 64e8 3ebd bcdc 263d 8322 253d d268 23bd
00000050: f200 ddbc 2548 15bd feaf 0a3d dda8 653d
00000060: 678d 0e3d 13d1 723d ae96 0c3d 195c 13bd
00000070: 1e36 383d e0d7 06bd 6a1b 34bc 25b4 b03c
00000080: 7192 203d b994 fe3c 9921 b13c 46eb 04bd
00000090: 8f84 f03b 12f1 273d 3d50 08bd 0dd0 c0bc
000000a0: 0ed3 e2bc c84b 2c3d 81ed e8bc 44a7 ddbb
000000b0: 7fa6 283d 51cb 7a3d ab22 8ebc 2294 49bd
000000c0: 68ee ffbc cc29 23bd 73d1 363d 0108 963d
000000d0: b739 c8bc bd23 933c dc30 643d 2850 c5bc
000000e0: 0ec9 1e3d 8ae6 d9bc 316c 3abd f7b0 63bd
000000f0: 0899 103d 856e e13c 1e3c 143d e935 6d3d
00000100: 63cb f03c b259 6bbd eaca 453d 8c82 fabc
00000110: ab37 dcbc 6bd6 8a3d afb0 16bd 2e2c bbbc
00000120: 37de 5cbd be16 733c 46ff 02bd ef70 bbbc
00000130: 89db 73bd cdc6 e1bc 68b4 133d 23fb fd3c
00000140: 7b98 59bd 295a edbc 83be 3dbd 1430 0ebd
00000150: edc5 41bd 8ccb d1bc 1e51 35bd 66d0 4b3d
00000160: 6591 07bd 16a2 dbbc 017f 573d 5ddb 6a3d
00000170: b5c9 063d c74c 923d bb15 1dbd 5569 fcbc
00000180: 4290 8a3d dcc2 1f3d f6fd ce3c 9a96 6c3d
00000190: b119 efbc 9337 1a3d a2e3 76bd a1da a53b
000001a0: 5839 333d 1a41 0d3d de2a 363b 8984 00bd
000001b0: eef7 363b 4e14 56bd 6513 fbbc c0cb a73c
000001c0: 4c79 263d c5c9 3f3d 7073 243d 7214 5e3d
000001d0: 8382 683d 4ad1 223d 9bda 643d 1378 dbbb
000001e0: 7378 193b 1480 1f3c 633f 103d 14c3 473d
000001f0: 9b11 3c3d 1403 903c e190 5b3d fe51 42bd

model.14.running_mean f4 [128]
-0.24224205 -0.5285767 -0.3483465 -0.26894006 0.25859314 -0.43478242 -0.09979888 -0.1701302
-0.17865297 -0.084778264 -0.28155833 -0.25412384 0.47801968 -0.2837914 -0.36157033 -0.36521575
0.6606566 0.24130498 0.42952174 -0.46198636 -0.19730242 -0.2876159 -0.043169476 -0.014357356
0.01507824 0.06934714 0.09122944 -0.30436623 -0.5986694 -0.3225177 0.13346998 -0.1428466
0.4758776 0.012777242 -0.000616796 -0.32173243 0.39074975 -0.7162889 -0.3696124 -0.58109486
0.12689771 -0.4165771 -0.10799733 -0.4632652 0.61697507 -0.22841968 -0.36980104 -0.49443638
-0.3352189 0.53484696 -0.2666646 -0.10831926 0.03477125 -0.14457648 -0.41143757 0.13680556
-0.016240539 -0.23947337 -0.39638028 -0.38848236 -0.46894613 0.065284215 -0.3725533 -0.20054722
1.0241842 -0.40540433 0.9343084 -0.21515125 0.09715128 -0.31859913 -0.20655987 0.066512756
-0.3695368 0.36326426 -0.47821134 -0.22286056 -0.2506188 -0.2587492 -0.055022042 -0.2080447
-0.0532878 0.2856459 0.21052837 -0.1536147 -0.48017803 -0.17790146 -0.17677173 -0.11095657
-0.22431181 -0.077493265 0.0054595983 -0.20749405 -0.064936005 -0.24012282 0.63131475 -0.21765456
-0.56821716 -0.11946132 -0.103566386 -0.25490558 0.36956498 0.11426321 -0.5867477 -0.2758244
-0.25616774 -0.12698321 -0.31601655 -0.52579445 -0.38046697 -0.1953858 -0.3262338 0.65026283
0.5964197 -0.074705124 0.6980382 -0.053457562 -0.20679809 0.46230963 -0.34663495 0.22587746
-0.10777488 -0.14137168 -0.22491954 -0.06475568 -0.13568252 0.6514432 -0.27132607 -0.33821684
00000000: 4d0e 78be cd50 07bf 795a b2be 83b2 89be
00000010: 5266 843e cd9b debe 5b63 ccbd 9c36 2ebe
00000020: cef0 36be 3aa0 adbd 6a28 90be 851c 82be
00000030: ffbe f43e 1b4d 91be bf1f b9be 8ffd babe
00000040: ca20 293f a718 773e 46ea db3e 7a89 ecbe
00000050: a509 4abe 6442 93be 7ad2 30bd 1e3b 6bbc
00000060: b90a 773c e005 8e3d 80d6 ba3d e4d5 9bbe
00000070: 6642 19bf 0a21 a5be 5bac 083e 6146 12be
00000080: 3ba6 f33e a357 513c 7bb0 21ba 1dba a4be
00000090: 5a10 c83e b65e 37bf d63d bdbe a2c2 14bf
000000a0: 79f1 013e 9849 d5be b42d ddbd 1931 edbe
000000b0: 14f2 1d3f d9e6 69be 9056 bdbe c426 fdbe
000000c0: d0a1 abbe bbeb 083f 4388 88be 7dd6 ddbd
000000d0: 4c6c 0e3d db0b 14be f2a7 d2be c216 0c3e
000000e0: e10a 85bc 8238 75be 5bf2 cabe 29e7 c6be
000000f0: b519 f0be bbb3 853d 4ebf bebe 405c 4dbe
00000100: 7818 833f 2891 cfbe d62e 6f3f 9c50 5cbe
00000110: 40f7 c63d 6d1f a3be 6e84 53be d737 883d
00000120: ed33 bdbe c6fd b93e 1ed8 f4be 8f35 64be
00000130: 1b51 80be c67a 84be cb5e 61bd ab09 55be
00000140: 4f44 5abd 2e40 923e c094 573e 2c4d 1dbe
00000150: e5d9 f5be cd2b 36be a603 35be 333d e3bd
00000160: ffb1 65be cab4 9ebd 6ee6 b23b 5279 54be
00000170: 2bfd 84bd c2e2 75be d89d 213f d6e0 5ebe
00000180: ae76 11bf 23a8 f4bd 9d1a d4bd fc82 82be
00000190: 9f37 bd3e d402 ea3d 1935 16bf db38 8dbe
000001a0: 6b28 83be e307 02be eccc a1be 779a 06bf
000001b0: 91cc c2be 3713 48be 1e08 a7be a077 263f
000001c0: f6ae 183f 00ff 98bd a2b2 323f 51f6 5abd
000001d0: e1c2 53be d9b3 ec3e 237a b1be 6c4c 673e
000001e0: 14b9 dcbd bdc3 10be 4f51 66be a09e 84bd
000001f0: 5cf0 0abe fbc4 263f 40eb 8abe c22a adbe

model.14.running_var f4 [128]
0.7083974 1.8584843 0.9079863 0.9761627 1.2195237 1.4759232 0.41953582 0.94685507
0.7802856 0.7265813 0.85181504 1.3586626 2.9638329 0.8679332 0.77425504 0.9403682
4.0745068 2.6222456 2.8103383 0.9744713 0.5662227 0.7300041 0.7088056 0.94075763
0.9175094 2.0369666 0.6412307 1.99942 1.570329 1.6813878 1.3220375 0.30776116
3.5021005 1.0006971 0.50407207 0.7356181 0.7468039 1.972819 1.4082913 1.6855762
0.5896283 0.8352273 0.7418709 1.8795966 5.643084 1.0439652 0.9997357 1.0379212
1.1342378 3.404836 0.49444282 1.0080899 1.5876694 0.3734648 1.8768516 1.7639858
0.62086844 0.5569969 0.82527006 0.9413587 1.1544912 0.8838934 1.0213712 0.82769436
6.709578 1.0807018 5.7121196 0.44681048 0.68648005 1.01444 1.6002284 1.9390736
0.7975856 0.75660217 1.1786747 0.78391933 0.72750056 0.9089545 1.1870927 1.3621356
1.5624919 2.4207635 1.7783713 0.9453668 0.84349227 0.3369498 1.0196322 1.0963296
0.74276984 0.6314724 0.71655923 0.5026783 0.5510303 1.0965252 4.508027 0.5997918
1.7204198 1.235535 1.2438099 0.83226323 3.8384376 0.49166533 1.2257518 0.66855353
0.5399904 0.63840926 0.68706447 1.2998977 0.6003306 0.82072484 0.8486089 3.0925484
3.4040813 0.50645757 4.20814 0.8861617 0.6597401 3.129921 0.5359886 1.8002696
0.88080543 0.53214234 0.7807518 0.46225598 0.7844332 1.3452592 1.0238525 0.76144415
00000000: 8859 353f d0e2 ed3f ca71 683f cce5 793f
00000010: 5a19 9c3f 0deb bc3f 66cd d63e 1865 723f
00000020: ccc0 473f 3b01 3a3f 8d10 5a3f a8e8 ad3f
00000030: 70af 3d40 df30 5e3f 9435 463f f8bb 703f
00000040: 5c62 8240 dfd2 2740 95dc 3340 f376 793f
00000050: f9f3 103f 8ce1 3a3f 4974 353f 7ed5 703f
00000060: e5e1 6a3f a95d 0240 b227 243f ffec ff3f
00000070: 8a00 c93f b737 d73f 8638 a93f df92 9d3e
00000080: 6a22 6040 d816 803f de0a 013f 7851 3c3f
00000090: 8a2e 3f3f 5585 fc3f e442 b43f f6c0 d73f
000000a0: e1f1 163f 75d1 553f 40eb 3d3f 9f96 f03f
000000b0: 2594 b440 a7a0 853f aeee 7f3f 9ada 843f
000000c0: b42e 913f d5e8 5940 9c27 fd3e 1709 813f
000000d0: c038 cb3f c736 bf3e ac3c f03f 49ca e13f
000000e0: 3cf1 1e3f 5997 0e3f e644 533f e2fc 703f
000000f0: 5ec6 933f d646 623f 4bbc 823f c7e3 533f
00000100: ddb4 d640 7054 8a3f afc9 b640 58c4 e43e
00000110: 28bd 2f3f 2bd9 813f 49d4 cc3f 9033 f83f
00000120: 922e 4c3f aeb0 413f d0de 963f f0ae 483f
00000130: 7a3d 3a3f 3eb1 683f a7f2 973f 765a ae3f
00000140: bcff c73f caed 1a40 aca1 e33f 8f03 723f
00000150: 1cef 573f af84 ac3e 4f83 823f 8754 8c3f
00000160: 2a26 3e3f 2da8 213f 6d70 373f 86af 003f
00000170: 5210 0d3f f05a 8c3f c241 9040 f58b 193f
00000180: b736 dc3f 0326 9e3f 2a35 9f3f 340f 553f
00000190: f6a8 7540 8fbb fb3e 6fe5 9c3f 5326 2b3f
000001a0: d03c 0a3f ca6e 233f 75e3 2f3f 0c63 a63f
000001b0: 44af 193f 061b 523f 6f3e 593f 50ec 4540
000001c0: 78dc 5940 34a7 013f 15a9 8640 7edb 623f
000001d0: bae4 283f a050 4840 8d36 093f 3c6f e63f
000001e0: 777c 613f 7b3a 083f 5adf 473f d1ac ec3e
000001f0: 9dd0 483f 7431 ac3f 990d 833f 01ee 423f
